选课/03_仓库源码/01_same_stack/GreenTeodoro839__NJU-xk-helper/models/title_model.onnx (onnx, 711315 bytes, 14 tensors)

classifier.1.weight f2 [487, 128]
00000000: e732 bbb1 2b32 aea8 e6af 18b3 94b2 da32
00000010: dc2b 3133 3b2d 912d df2b f423 62b1 3c1f
00000020: 6e2e 7d30 3ba7 0baa 38b2 2bb1 11a9 e12c
00000030: 3aae efac 6bb1 04a9 0530 612b b6b4 77ac
00000040: 8730 7ab4 5fa0 3a32 1aa9 b82e 92a9 5630
00000050: 9830 18b3 23b3 1cb3 2cb1 efb4 4eae b6b3
00000060: 231e a9b3 4927 72af 4fae f7b3 40ad 3ea4
00000070: 3fad fa32 a823 f42c cab3 e1ad e132 cf2f
00000080: f530 9ba7 11b0 9fb1 2f2d 2e2f 45b2 5cb3
00000090: 2db1 a29a 07ad f9b0 d0b0 b8b0 e831 43b3
000000a0: e9b0 cfb0 40b0 e7b1 2eb4 a432 35a2 072f
000000b0: af30 0ba8 23ae 9db2 3933 98ab 01b4 d3af
000000c0: 70b3 c4b0 81b0 5a30 00b3 fcb0 d92c 80ad
000000d0: 8a2e 5aaf 6126 4eb2 6eb1 80ad 85ad 342e
000000e0: e31e e02d 81a4 b1b3 50b3 3132 9d2c edae
000000f0: b02d afae cdaa bf32 99b2 afaf 10ab a7ad
00000100: 4726 8431 8bb3 65b4 84ae 5fb3 b7ae 38b1
00000110: bd31 3531 8f31 b6a7 502b 532e aab2 7b29
00000120: 6ca9 f7b5 3db1 132c 33b1 d722 33a4 1db4
00000130: 5428 1430 232e 522c 982d aab5 162e 78a9
00000140: f89f 48b4 1927 1332 dfb1 2528 cbb4 7cb3
00000150: 3730 1db5 1f9b dfb2 bdaf ef30 92ae c52d
00000160: e92f 8fb4 1db5 7cb4 18b1 f9b0 92b3 162b
00000170: 2327 baa6 d7b0 c431 af30 62b0 ad30 49b4
00000180: d72f 8ba5 f6ae 28b4 5b32 49ab 29b1 1eaa
00000190: 27b3 bf32 bcb0 252d 53b1 8bb4 fdab 9caf
000001a0: f9a7 94ad 1d2e 5d31 29a6 5d2f f731 4a2e
000001b0: 99b2 dd17 6eb2 adb3 4929 6aaf ef33 40b2
000001c0: c3b2 84a7 612e 482c 33b3 bd2c 252d f9b1
000001d0: a5b3 ba9f 31b4 aeb3 0730 152b e126 40b0
000001e0: f1b2 c2b0 b22b 4231 38b3 0d33 6a33 29b3
000001f0: 87b2 44b2 5934 6f30 139f c4b5 472e a3af
0.2157 -0.1791 0.1927 -0.03656 -0.1234 -0.2217 -0.2056 0.2141
0.0614 0.2247 0.0817 0.087 0.0615 0.01553 -0.1682 0.007065
0.10046 0.1403 -0.02824 -0.0472 -0.1943 -0.1615 -0.03958 0.07623
-0.0973 -0.0771 -0.1693 -0.03918 0.1256 0.05765 -0.2944 -0.06976
0.1415 -0.2798 -0.00854 0.1946 -0.03986 0.105 -0.04352 0.1355
0.1436 -0.2217 -0.223 -0.2222 -0.1616 -0.3083 -0.0985 -0.241
0.005993 -0.2394 0.02846 -0.11633 -0.0986 -0.2489 -0.08203 -0.01657
-0.082 0.218 0.01495 0.0774 -0.2434 -0.09186 0.215 0.122
0.1549 -0.02971 -0.1271 -0.1757 0.081 0.1122 -0.1959 -0.23
-0.1617 -0.003239 -0.07855 -0.1554 -0.1504 -0.1475 0.1846 -0.2269
-0.1534 -0.1503 -0.1328 -0.1844 -0.2612 0.2075 -0.01212 0.1098
0.1464 -0.0316 -0.0959 -0.2067 0.2257 -0.05933 -0.2502 -0.12225
-0.2324 -0.1489 -0.1407 0.136 -0.2188 -0.1558 0.07574 -0.08594
0.1022 -0.11487 0.02492 -0.197 -0.1697 -0.08594 -0.08624 0.0969
0.006725 0.0918 -0.0176 -0.2404 -0.2285 0.1935 0.0721 -0.1082
0.08887 -0.10443 -0.05313 0.2108 -0.2062 -0.12006 -0.05518 -0.0883
0.02452 0.1724 -0.2357 -0.2747 -0.1018 -0.2303 -0.1049 -0.1631
0.1793 0.1627 0.1737 -0.03012 0.05713 0.0988 -0.2083 0.04282
-0.04236 -0.3728 -0.1637 0.06366 -0.1625 0.01336 -0.0164 -0.257
0.0338 0.1274 0.0959 0.0675 0.0874 -0.354 0.0951 -0.04272
-0.007782 -0.2676 0.02773 0.1898 -0.1835 0.03238 -0.2996 -0.2339
0.1317 -0.3196 -0.003477 -0.2147 -0.1209 0.1542 -0.10266 0.09015
0.1236 -0.285 -0.3196 -0.2803 -0.1592 -0.1554 -0.2366 0.05536
0.02788 -0.02628 -0.1512 0.1802 0.1464 -0.137 0.1461 -0.2678
0.1225 -0.02165 -0.10876 -0.2598 0.1986 -0.05692 -0.1613 -0.0478
-0.2235 0.2108 -0.148 0.0804 -0.1664 -0.284 -0.0624 -0.1189
-0.03114 -0.08716 0.0955 0.1676 -0.02406 0.11505 0.1864 0.09827
-0.2062 0.00192 -0.2009 -0.2399 0.0413 -0.11584 0.2479 -0.1953
-0.2113 -0.02936 0.0997 0.0669 -0.225 0.07404 0.0804 -0.1866
-0.2389 -0.007545 -0.262 -0.24 0.1259 0.05533 0.02687 -0.1328
-0.2169 -0.1487 0.06012 0.1643 -0.2256 0.2203 0.2317 -0.2238
-0.204 -0.1958 0.2717 0.1385 -0.00691 -0.3604 0.0981 -0.1193

classifier.1.bias f2 [487]
00000000: 259f fe9e 3aa8 b7a8 b029 da27 14b0 582c
00000010: d728 d6ac 5f2b b5ae faad 7a25 80ae c52c
00000020: 75aa 8695 7428 5ea9 d8ab b7a1 9bac 962d
00000030: 0ea5 c3a5 5aab aeae 7faf b82c fd29 b728
00000040: 7cac 2f1e 23a2 7725 adae 1a28 12ab f526
00000050: a6ae 2328 85ae 022e f6a9 052c 502a 5521
00000060: 9c2a 329e 0cac 422d dca9 c92e cea9 53ac
00000070: d626 42ac 9522 2023 dd26 22af 1a2b 23a2
00000080: 492c c6af 57ac a129 e129 c611 2030 78ad
00000090: 72ac d5a9 e5a6 9da2 aca8 1eae 19aa 559e
000000a0: 5fae 6e30 e0a4 2d2c a129 bf9e e1ad 07aa
000000b0: a0a8 fe99 29a9 55ac 92a8 e2ac 82a1 41ad
000000c0: 11af 2829 72a6 80a7 1529 312c 24a2 9ea8
000000d0: 6da7 b8a5 cdae 0427 dca9 05b1 d328 2bac
000000e0: 9714 432c c8ad 89a5 03ac e12a a696 442b
000000f0: a695 0a97 d59f 9b2c 3aa1 a823 40ab 462a
00000100: 73a5 b829 4ba8 671f 83aa b71a 3daa 7aac
00000110: 52a8 2120 c5ae 65a4 5e2e a2aa 67ac 742d
00000120: 68ae 9e2a fe9b e2aa 5f28 0524 19ac 0f2b
00000130: 6530 0dad dcaa 960f 5229 6c27 9aa1 cd9b
00000140: 47a3 b028 75a9 e4aa 7f20 5729 af2a 482c
00000150: a59d b72a 00a6 7bad 79a8 3621 f0a9 fcaa
00000160: b7ad 4b9f e22c a3a0 b1ac 582d fead d2a5
00000170: 712d 5a18 4590 b92c de1a 18a8 d61f bc2a
00000180: 572d e024 861a 0ead 3f28 2dad 232b ffa8
00000190: 3aad 4fa4 fe2c 28a2 a2a8 08ad 51af 9828
000001a0: c52f 79a8 b61a 622c a8a4 a0a4 c8a5 8d26
000001b0: 54a8 98aa ec26 54a6 d4a4 b1a4 ae2a 5429
000001c0: 8fad 5bae 59ab c6a4 5226 ca0c 7f2b 7629
000001d0: c824 142b 979f d8ad 4ea4 30ad 8fa9 b2a7
000001e0: 1324 f12d 55a6 52a5 db2c b7a2 17ab a7a4
000001f0: 052c 8a18 302d d22e e928 31ad ec29 eb27
-0.006977 -0.00683 -0.03302 -0.03683 0.04443 0.03067 -0.1274 0.0679
0.0378 -0.07556 0.0576 -0.1048 -0.0934 0.0214 -0.10156 0.0745
-0.05045 -0.0013485 0.0348 -0.04193 -0.06128 -0.01116 -0.07196 0.0873
-0.01974 -0.0225 -0.05743 -0.1044 -0.1171 0.0737 0.04678 0.03683
-0.07007 0.00604 -0.011986 0.02135 -0.1043 0.03204 -0.05524 0.02718
-0.1039 0.03232 -0.10187 0.0939 -0.04657 0.0628 0.04932 0.010414
0.05164 -0.00605 -0.06323 0.08215 -0.04578 0.106 -0.04535 -0.06757
0.0267 -0.0665 0.012856 0.013916 0.02681 -0.11145 0.05548 -0.011986
0.06696 -0.12146 -0.0678 0.04398 0.04593 0.000705 0.1289 -0.08545
-0.06946 -0.04556 -0.02693 -0.01292 -0.0365 -0.0956 -0.04764 -0.006184
-0.09955 0.1384 -0.01904 0.06525 0.04398 -0.006588 -0.09186 -0.0471
-0.03613 -0.002926 -0.0403 -0.0677 -0.0357 -0.0763 -0.01076 -0.0821
-0.1104 0.04028 -0.02518 -0.0293 0.0397 0.0655 -0.01199 -0.03607
-0.029 -0.02234 -0.10626 0.0274 -0.04578 -0.1569 0.0377 -0.0651
0.001121 0.0666 -0.09033 -0.02162 -0.0627 0.05374 -0.001623 0.05676
-0.001379 -0.0017185 -0.00765 0.07196 -0.01021 0.01495 -0.05664 0.049
-0.02129 0.04468 -0.03354 0.00723 -0.05087 0.003279 -0.04874 -0.06995
-0.03375 0.008064 -0.1058 -0.01717 0.0995 -0.05182 -0.0688 0.0852
-0.1001 0.0517 -0.003902 -0.05377 0.03415 0.0157 -0.064 0.05515
0.1373 -0.0789 -0.0536 0.000463 0.04156 0.02899 -0.01094 -0.003809
-0.01421 0.03662 -0.04263 -0.05383 0.00878 0.04172 0.05222 0.0669
-0.005512 0.05246 -0.02344 -0.08563 -0.03494 0.01018 -0.0464 -0.05457
-0.0893 -0.007122 0.0763 -0.009056 -0.0733 0.0835 -0.0936 -0.02274
0.085 0.002125 -0.000521 0.0738 0.003353 -0.03198 0.007652 0.0526
0.08344 0.01904 0.003185 -0.079 0.03317 -0.0809 0.05576 -0.03903
-0.08167 -0.01683 0.078 -0.012024 -0.0362 -0.0786 -0.1143 0.0359
0.1214 -0.03494 0.003277 0.0685 -0.01819 -0.01807 -0.02258 0.02559
-0.0338 -0.0515 0.02704 -0.02472 -0.01886 -0.01833 0.0522 0.04163
-0.08685 -0.0993 -0.0574 -0.01865 0.02469 0.0002923 0.05856 0.04266
0.01868 0.0553 -0.007412 -0.0913 -0.01682 -0.08105 -0.04343 -0.03006
0.01591 0.09283 -0.02473 -0.02078 0.07587 -0.013115 -0.0554 -0.01817
0.0628 0.002216 0.08105 0.10657 0.03836 -0.0811 0.04626 0.03093

onnx::Conv_69 f2 [32, 3, 3, 3]
00000000: 4232 bf31 5ba6 7131 3faf 3822 78ad 1b31
00000010: 1e33 c0af ff31 0f2c 3930 eba8 8a2c 8aa2
00000020: 5632 4a2c 34ac 452b c5ac 42aa e3b0 f22e
00000030: cdb0 00ac 57a6 10b7 782d 43ba 2239 7ab9
00000040: 6138 1a2e 64b5 8c36 a12f e938 8727 2bb4
00000050: 9a30 37b3 b934 9f38 4a36 20b5 1237 232d
00000060: 9935 0eb8 10ba 8ab4 0ab9 c238 0332 3233
00000070: 3c30 131c 8c37 b1b5 a1a6 0fb6 9930 f3b0
00000080: 5231 dbb0 6337 59b4 b4b4 21b6 9e37 0231
00000090: 6838 23b7 9cb8 90b6 0ab5 ec33 3830 0337
000000a0: dcb4 ecaf e12f 4fad c92f 64a1 4d2f bab1
000000b0: 81ae dd2a 7828 b7a4 342e 3830 52ae 8aad
000000c0: e02f 9fac 52ac e0b1 cdac 2428 40a5 54ae
000000d0: b322 8db1 50b1 ceae a7b4 17b0 7034 9e2e
000000e0: cf2e e2b2 98ac 65a8 1d2c afb4 f6ac f7ae
000000f0: 672b 6aab fa9e eaac aaaf 5aaf 40b1 38b1
00000100: a033 3120 ac33 6c2d 8baf d232 46a9 01b3
00000110: fdb6 d9b7 2630 1faf 6c32 b5b6 eb35 69b6
00000120: 48af 692d 4634 4136 4a37 49b6 972f 00b3
00000130: 9aad 76b6 fc36 c7b5 0e34 9831 5f31 7ab4
00000140: 4037 ed2c 482c e7b8 b535 feae 60b5 5539
00000150: 8d31 6fb6 2db5 2eab 6c36 97af 79b6 12b4
00000160: 6db7 4c34 4338 09b9 9530 f435 0f32 08b4
00000170: aa35 eb36 8534 58b0 dfb0 222d 10b0 fbb0
00000180: 7e36 6038 c8a2 0eb1 9619 22a7 3431 f530
00000190: 41b8 ebb2 4b38 9d34 79aa 0db6 e5b5 4eb8
000001a0: 03b3 9633 7b36 d434 f4b7 41b6 a4ae d938
000001b0: 012d 43a3 ca30 a1b0 edb1 8b34 53b1 049c
000001c0: 98b4 2b34 7535 4730 1bb4 dcb4 0fb4 0534
000001d0: 7833 a735 af32 5031 5e1d 7fb4 22b4 beb4
000001e0: 3b30 bfae 8fa1 56ad e4ab dfb0 1dad b22b
000001f0: 33ac b62d cfab 9bb0 45a4 20af acad 15b0
0.1956 0.1796 -0.02483 0.17 -0.1132 0.012146 -0.08545 0.1595
0.2224 -0.1211 0.1874 0.0634 0.132 -0.03842 0.0709 -0.01277
0.198 0.067 -0.0657 0.0568 -0.0745 -0.0489 -0.1527 0.1085
-0.15 -0.0625 -0.02477 -0.4414 0.08545 -0.7827 0.6416 -0.6846
0.5474 0.09534 -0.337 0.4092 0.1192 0.614 0.0294 -0.2605
0.1438 -0.2255 0.2952 0.5776 0.393 -0.3203 0.442 0.08026
0.3499 -0.507 -0.758 -0.2837 -0.63 0.5947 0.1879 0.2249
0.1323 0.00398 0.4717 -0.3557 -0.0259 -0.3787 0.1437 -0.1547
0.1663 -0.1517 0.4617 -0.2717 -0.294 -0.383 0.476 0.1565
0.551 -0.446 -0.576 -0.4102 -0.315 0.2476 0.1318 0.4382
-0.3037 -0.1238 0.1231 -0.08295 0.12164 -0.01053 0.1141 -0.179
-0.1016 0.05362 0.0349 -0.01842 0.0969 0.1318 -0.09875 -0.08655
0.12305 -0.0722 -0.0675 -0.1836 -0.075 0.03235 -0.02051 -0.0989
0.013084 -0.1735 -0.166 -0.1063 -0.2908 -0.1278 0.2773 0.1034
0.1064 -0.2151 -0.0718 -0.03433 0.0643 -0.2927 -0.0775 -0.1088
0.05783 -0.05792 -0.006813 -0.0768 -0.11975 -0.11487 -0.1641 -0.1631
0.2383 0.00819 0.2397 0.0847 -0.11786 0.2131 -0.0412 -0.2189
-0.4368 -0.4905 0.1296 -0.11127 0.2007 -0.4192 0.3699 -0.4006
-0.1138 0.08453 0.267 0.3909 0.4556 -0.3928 0.1186 -0.2188
-0.0875 -0.4038 0.4365 -0.361 0.2534 0.1748 0.1678 -0.2798
0.4531 0.07697 0.0669 -0.613 0.3567 -0.10925 -0.336 0.6665
0.1735 -0.402 -0.3235 -0.0561 0.4014 -0.1186 -0.4045 -0.2544
-0.464 0.2686 0.5327 -0.6294 0.1432 0.372 0.1893 -0.252
0.354 0.4324 0.2825 -0.1357 -0.1522 0.0802 -0.127 -0.1556
0.4058 0.547 -0.013245 -0.158 0.002728 -0.02786 0.1626 0.1549
-0.5317 -0.2162 0.5366 0.2883 -0.05057 -0.3782 -0.3684 -0.538
-0.2191 0.237 0.405 0.3018 -0.497 -0.3909 -0.10376 0.606
0.0782 -0.01418 0.1497 -0.1447 -0.1852 0.284 -0.1664 -0.00392
-0.287 0.2605 0.341 0.1337 -0.2566 -0.3037 -0.2537 0.2512
0.2334 0.3533 0.2089 0.166 0.00524 -0.281 -0.2583 -0.2964
0.1322 -0.1054 -0.01086 -0.0834 -0.06165 -0.1522 -0.0799 0.06012
-0.0656 0.08923 -0.061 -0.1439 -0.01668 -0.1113 -0.0886 -0.1276

onnx::Conv_70 f2 [32]
00000000: ce3b bb34 2cac a5b9 29ba deb7 43b5 3634
00000010: 7d2c cdba 24ba c8b1 4fbb ebb1 ee32 83bb
00000020: 7533 f129 d93b 6291 8c39 a7b8 3ab8 11bb
00000030: c938 ee38 cab0 2139 07b8 e82c c439 e1b5
0.9756 0.2957 -0.0652 -0.7056 -0.77 -0.4917 -0.3289 0.2632
0.0701 -0.85 -0.7676 -0.1807 -0.9136 -0.1849 0.2166 -0.939
0.233 0.04642 0.981 -0.000657 0.6934 -0.5815 -0.5283 -0.8833
0.598 0.616 -0.1497 0.641 -0.5034 0.07666 0.7207 -0.3674

onnx::Conv_72 f2 [32, 32, 3, 3]
00000000: 14a9 81a5 6da2 acab 0a2d ec28 f32d d39d
00000010: 5421 ad2c 30aa daa0 8a99 90aa 0eaf 602e
00000020: 012e 622c b129 27aa c421 db2f 1199 1a2c
00000030: f5a6 842a fba7 25a8 0b2e 8da4 c0ae 3424
00000040: 40ab 57ac 9329 27ac c8b0 e69f 291f 96b1
00000050: eca7 4728 b9ac 1b28 79a9 902c 192c 6ba6
00000060: e9a5 c92a d3a5 e821 aeaa 862e e6a5 5ca2
00000070: b928 e7ac 8f9d 5faa 96b0 7baf b2ac 6d20
00000080: a0aa 2dae acad 7c2c 4d2a 5f2d 8120 5f24
00000090: 722d 3fa9 3625 212c b0a0 35a8 bb2f 1dac
000000a0: c7a9 0e2f f030 cc30 1824 f09c 7b2b f329
000000b0: d3ac 3321 32af 7f21 642a 9fae d4a9 be25
000000c0: eeae 33b0 2a29 50a9 c12a 0825 b6ac 16a9
000000d0: 8025 99ae 39aa a999 28ae 0ca4 58a4 45b0
000000e0: 99ab 0aaa 03a5 d6aa 75ab 19a7 112a 572d
000000f0: ceac a22d 1728 cb99 73a8 f9ae 41ac 5bac
00000100: 1a2a 869c fb23 33a7 2f21 22ab d3a0 ada7
00000110: 9a20 7eaa 1aa5 8b2e 102c 84ad 6da4 0aa6
00000120: 6aa8 8e2d 0e2d 712e f39e 42a6 c72e b52d
00000130: b522 35ab 042d ee9d 59ad 23ac 6d2b 721f
00000140: 9ea3 04ad 488f 27aa 8ba5 6c2c 1a2d 932d
00000150: 1fa9 782b 0daa ff22 552a ef2b 0e24 152b
00000160: 1ea1 38ac 1aab 7626 49a7 5d26 5caa 92a6
00000170: c7a7 c3a4 47ad 0fae 6b20 ac31 2331 d92e
00000180: 351c 97ac e827 262a 1eac be28 c42e 0626
00000190: 0aac 842b be25 012b d2ad cf29 a3ac 1c2d
000001a0: b3a8 462c 39a9 689d 2ba9 0ca8 20ac 24af
000001b0: eb99 a32c e1a2 e729 63ab b62b a32c f92a
000001c0: 0faa 13ae b418 63a9 c02c 05af cf26 3030
000001d0: 9c2b df28 63ae de2d 30a0 6eac 0730 fba9
000001e0: 3aac bd2e 71a9 bdab 2a29 931f c925 ffa9
000001f0: 751e b2ac dda8 eaad 7827 b00d 47ad 922a
-0.03967 -0.0215 -0.01255 -0.05994 0.07874 0.03845 0.09296 -0.005688
0.01041 0.07306 -0.04834 -0.009476 -0.002705 -0.05127 -0.1102 0.0996
0.0938 0.0685 0.04446 -0.04807 0.01126 0.12274 -0.002474 0.0641
-0.02718 0.0509 -0.03117 -0.03238 0.0944 -0.01778 -0.10547 0.01642
-0.05664 -0.0678 0.04355 -0.0649 -0.1494 -0.007713 0.006992 -0.1746
-0.03094 0.03342 -0.0738 0.03207 -0.04276 0.0713 0.064 -0.02507
-0.02309 0.053 -0.02275 0.011536 -0.0522 0.1019 -0.02304 -0.01242
0.0369 -0.0766 -0.00543 -0.04977 -0.1433 -0.1169 -0.07336 0.008644
-0.05176 -0.0965 -0.0886 0.07007 0.04922 0.0839 0.0088 0.01707
0.0851 -0.041 0.02036 0.0645 -0.009155 -0.03287 0.1208 -0.0643
-0.04514 0.1102 0.1543 0.1499 0.01599 -0.00482 0.05844 0.04648
-0.0754 0.010155 -0.1124 0.010735 0.04993 -0.10345 -0.04553 0.02243
-0.1083 -0.1312 0.04034 -0.0415 0.05276 0.01965 -0.0736 -0.03973
0.02148 -0.1031 -0.0486 -0.002764 -0.0962 -0.01581 -0.01697 -0.1334
-0.05936 -0.04718 -0.01958 -0.0534 -0.05826 -0.02773 0.0474 0.08344
-0.0751 0.088 0.03195 -0.002829 -0.03476 -0.10895 -0.06647 -0.06805
0.04767 -0.004417 0.01559 -0.02812 0.010124 -0.05573 -0.00942 -0.02998
0.00899 -0.05072 -0.01993 0.10223 0.0635 -0.0862 -0.01729 -0.02359
-0.0345 0.0868 0.079 0.10065 -0.006786 -0.02444 0.1059 0.0892
0.0131 -0.0563 0.07837 -0.00579 -0.08356 -0.06464 0.058 0.00727
-0.01488 -0.07837 -0.0004444 -0.04807 -0.02165 0.0691 0.0797 0.0871
-0.04 0.05835 -0.04727 0.013664 0.04947 0.06198 0.01584 0.05533
-0.009995 -0.0659 -0.05548 0.02524 -0.02846 0.02486 -0.04968 -0.02567
-0.03038 -0.0186 -0.08246 -0.09467 0.00863 0.1772 0.1605 0.107
0.00411 -0.0717 0.03088 0.04803 -0.06433 0.03705 0.1057 0.02353
-0.0631 0.05872 0.02243 0.05472 -0.09094 0.04538 -0.07245 0.07983
-0.0367 0.0668 -0.0408 -0.00528 -0.04037 -0.03162 -0.06445 -0.1116
-0.00289 0.07245 -0.013435 0.0461 -0.0577 0.06024 0.07245 0.05447
-0.04733 -0.0949 0.002296 -0.04208 0.0742 -0.1097 0.0266 0.1309
0.05945 0.03806 -0.0998 0.0917 -0.00818 -0.0692 0.1259 -0.04672
-0.06604 0.1053 -0.0425 -0.06046 0.04034 0.007397 0.0226 -0.04684
0.006306 -0.07336 -0.038 -0.0924 0.02917 0.0003471 -0.08246 0.05133

onnx::Conv_73 f2 [32]
00000000: 8a35 013a e438 ee3e 3938 3e3e 9939 e8b0
00000010: 4740 703b 9b3c 39ba 713e 7bbd 16b5 3839
00000020: 57b8 d335 2f40 c237 6831 8139 54c2 2f3f
00000030: 243d e6aa 9c3b 3f3a 3e3a 643b 0135 fe3a
0.3462 0.7505 0.6113 1.732 0.528 1.561 0.6997 -0.1533
2.139 0.9297 1.151 -0.778 1.61 -1.37 -0.3179 0.6523
-0.5425 0.364 2.092 0.4849 0.169 0.688 -3.164 1.796
1.285 -0.0539 0.951 0.781 0.7803 0.924 0.3127 0.874

onnx::Conv_75 f2 [64, 32, 3, 3]
00000000: 3caa b8ad ba28 91a7 d32d 9991 c524 b52b
00000010: 64a9 04b0 1011 2db2 21ac 1310 c6ab afa6
00000020: e699 d6ac 52a8 342f 0d25 6724 1224 01a5
00000030: 3b2e 7b23 4b97 7f2c 9798 0ba5 3f2b 35ae
00000040: 75a1 242b 202d 9130 a1a9 f124 1dac 9b26
00000050: 591b b6b0 0aaf d6af c7ac 40ad c5ad 0d24
00000060: e4ad 06ad deac 452b fc2c 6b29 1a19 1d2e
00000070: 782e 6aa2 0229 5323 4bac e7a8 cfac 3da3
00000080: bc28 28ad 67aa 5f20 692d cca2 1e26 1727
00000090: 219b b915 011e b322 6d24 d42a 191b 7da8
000000a0: fd2c ff28 e69a 62a0 23ae 97ab 3423 df19
000000b0: 3a29 6c24 cc1e 2522 672e 3d2e 38a4 2028
000000c0: 2da7 aba9 1c9d 6fa7 60a6 4cae eda5 e5ad
000000d0: 2929 f196 afa4 29a6 af2a 7221 b895 10a7
000000e0: bb2c 5cad 38a6 6b30 f7ae dcb0 0cab b326
000000f0: 17ab 3728 499e e7ab 5c23 6d25 88ad 7ead
00000100: 31ac 572c fb9f c32a e72e 852d 7e28 de2d
00000110: 0ca1 7c25 29ab 8aad a32c e7b0 14b0 96ad
00000120: 18b0 d0ae eba7 e7aa 27ab 8bad 78ad aca8
00000130: 3a25 6a2b 5e2c 062c 42aa 59a4 d12c 001b
00000140: 0ba6 64ab 7628 10ac 83a8 31a8 f7ad c6ad
00000150: 4ea8 b02a d129 4f18 c1a7 cfaa 0b29 87ac
00000160: 1224 902c 3ca4 06a4 3da5 54ad ca29 4c27
00000170: c62a c7a8 9eac 312a f7a4 072f 2829 a224
00000180: 76a7 0528 6a2b 6599 ab2e f42e c9a9 8d2c
00000190: 31a8 40a5 912d f4a5 e3a5 cd2e bba8 722a
000001a0: f22e 0e2b a7a4 9f98 fd2a 73ac ad26 ecac
000001b0: da29 809c 29a3 d82a 0dad b9ac 1525 1e2c
000001c0: 29ab 772d 262d 392d bcad ddac 72ac 3cad
000001d0: 83b0 b0a5 ab9e 7728 94ae b2ab 9a1a 6229
000001e0: f72a f69d 772d 25ac 112c d0a9 2ca9 bba9
000001f0: a5b0 9429 4128 99a4 f7aa f7aa 00a4 19ac
-0.0487 -0.08936 0.03693 -0.02956 0.091 -0.0006833 0.01863 0.0602
-0.0421 -0.1255 0.000618 -0.193 -0.0645 0.0004973 -0.06073 -0.02611
-0.00288 -0.07556 -0.03375 0.11255 0.01973 0.0172 0.0159 -0.01955
0.09735 0.01461 -0.0017805 0.07025 -0.002241 -0.0197 0.0566 -0.097
-0.01066 0.0558 0.0801 0.1427 -0.04398 0.0193 -0.0643 0.0258
0.003588 -0.1472 -0.11 -0.12244 -0.07465 -0.08203 -0.09015 0.01582
-0.09204 -0.0785 -0.07605 0.0568 0.0779 0.04233 0.002491 0.0955
0.1011 -0.01253 0.03912 0.014305 -0.0671 -0.0383 -0.07513 -0.01414
0.037 -0.08057 -0.05002 0.00854 0.08453 -0.013275 0.0239 0.0277
-0.00348 0.001397 0.005863 0.013084 0.01729 0.05334 0.003466 -0.03506
0.07794 0.03903 -0.003368 -0.00856 -0.0959 -0.0593 0.01407 0.002867
0.04083 0.01727 0.006638 0.012 0.10004 0.0975 -0.01648 0.03223
-0.02803 -0.04428 -0.00499 -0.02904 -0.0249 -0.0984 -0.02315 -0.0921
0.0403 -0.001695 -0.0183 -0.02406 0.05222 0.010635 -0.001396 -0.02759
0.0739 -0.08374 -0.02429 0.1381 -0.1088 -0.1519 -0.05505 0.02617
-0.0554 0.03293 -0.006138 -0.06174 0.01437 0.0212 -0.0864 -0.0858
-0.0655 0.0678 -0.007793 0.05283 0.10785 0.08624 0.0351 0.0917
-0.00986 0.02142 -0.05594 -0.08655 0.07245 -0.1532 -0.1274 -0.0873
-0.1279 -0.10645 -0.03093 -0.05392 -0.05588 -0.0866 -0.08545 -0.0365
0.02042 0.05792 0.06824 0.06287 -0.0489 -0.01698 0.07526 0.003418
-0.0236 -0.05774 0.03485 -0.0635 -0.03525 -0.03275 -0.0932 -0.0902
-0.03363 0.05225 0.04544 0.002104 -0.03029 -0.0532 0.0394 -0.07074
0.0159 0.0713 -0.01654 -0.01572 -0.02046 -0.08325 0.04523 0.0285
0.05292 -0.03732 -0.07214 0.04837 -0.0194 0.1098 0.04028 0.0181
-0.02914 0.0314 0.05792 -0.002634 0.1042 0.10864 -0.0452 0.0711
-0.03275 -0.02051 0.087 -0.02325 -0.023 0.10626 -0.03696 0.05035
0.1085 0.0551 -0.01817 -0.002256 0.0546 -0.0695 0.02608 -0.0769
0.04572 -0.004395 -0.013985 0.05347 -0.0789 -0.0738 0.01985 0.06433
-0.05594 0.0854 0.08044 0.0816 -0.0896 -0.076 -0.06946 -0.0818
-0.141 -0.02222 -0.00651 0.03488 -0.1028 -0.06012 0.003223 0.04205
0.0544 -0.00582 0.0854 -0.06476 0.06354 -0.0454 -0.0404 -0.04477
-0.1451 0.04358 0.03323 -0.01796 -0.0544 -0.0544 -0.01563 -0.064

onnx::Conv_76 f2 [64]
00000000: 4f3d 2aa7 0cb5 4b1f ca35 3239 213a 033c
00000010: 333e 693b 8037 423b 7d3d 5235 4bb8 a529
00000020: 28ad c8a4 51b4 443d 9ebc 8235 50b4 0333
00000030: 09bc 023d a932 4b2c 383d 9b38 543b ca3d
00000040: 58b0 90b7 c82c 3d36 2439 e138 973a 6935
00000050: 18b0 3d3a b5b8 f739 c7b2 e236 5c2e fc40
00000060: b3ba 482d 7eb4 7eba d432 c6bc c9ba d33c
00000070: b0ac f0b4 e9b7 3bbd 343a 84ba 6138 6330
1.327 -0.02798 -0.3154 0.007122 0.3618 0.6494 0.766 1.003
1.55 0.9263 0.4688 0.907 1.372 0.3325 -0.5366 0.0441
-0.08057 -0.01868 -0.2698 1.316 -1.154 0.3442 -0.2695 0.2191
-1.009 1.252 0.2081 0.0671 1.305 0.5757 0.916 1.447
-0.1357 -0.4727 0.0747 0.39 0.6426 0.61 0.8237 0.3381
-0.1279 0.78 -0.5884 0.7456 -0.2118 0.4302 0.09937 2.492
-0.8374 0.0825 -0.2808 -0.8115 0.2134 -1.193 -0.848 1.206
-0.07324 -0.3086 -0.4944 -1.308 0.7754 -0.8145 0.5474 0.1371

onnx::Conv_78 f2 [64, 64, 3, 3]
00000000: fd28 02a7 7b24 4ead b9a5 08a0 cea9 dfac
00000010: aaa7 aaad 71af e3a8 58ac 44a5 44a9 45b0
00000020: 7923 2024 f9a8 3c2e ce27 06a4 fe25 3426
00000030: 02ae d617 281e 9020 d31e 25ac 6f16 d7aa
00000040: 4aad 2fad 0525 1aaa 1ead f2ae 00ad e2ae
00000050: 2eac dd20 c9a8 aba5 a51b 7025 ba2c 0c29
00000060: 5829 2c1b d0a3 8caa 0f25 d626 3125 87ae
00000070: 8e18 eb28 35a4 e2a3 38ac ddac fa28 5629
00000080: 5b2a 11a9 f7ad 9ea3 66ac 03af 68a6 8ead
00000090: 6d2d 392c 0626 312a 4321 6c2b 0e2f 8319
000000a0: b427 2829 3427 802c 6629 d024 5926 6626
000000b0: 1724 5a27 f028 4327 06a9 37a4 6121 4a2a
000000c0: ab95 402d 412b 9a1e e72d 211d b92a bd9b
000000d0: e528 01a9 da29 b624 7fa1 ab24 0aa9 38a4
000000e0: acac 822b 42a8 b9a7 8f2c 9bb0 78ab aaa0
000000f0: 61ac 11a4 39a8 fda7 75a9 11a4 429e 329f
00000100: 609e 1229 5ba8 ed28 7ba6 7e1e 5ea7 849d
00000110: 31a0 80a6 ff27 9da4 c6a5 19a8 75a1 70a5
00000120: ce2e fe2e ad2b 3230 b4a0 34a7 652c 702a
00000130: 64ab 3828 7d20 972c 3230 e8a9 7726 0728
00000140: 9b2a 8421 28af 5bae 72ad 23a4 23aa 63ab
00000150: 86a8 d1a7 96a4 ab2e 302b 37a9 4c2c a0aa
00000160: 04ad 54a8 e7aa 8ba8 e12c e02b fc2c e49c
00000170: 5a23 45a6 70a0 28a3 9b2a c02c 6a29 25a9
00000180: d62a 081f 7d2a 2629 96a8 0224 80aa 80a0
00000190: 1d23 bcaa 7929 f221 84a9 54a9 bf24 37a5
000001a0: ad22 be29 042c 52aa cb28 2827 63a9 812e
000001b0: 3f2b 139d 5229 2e2a 0f2c 4728 c925 a01d
000001c0: 881c a5a8 0fa9 fca1 92af 47a0 15a8 aba3
000001d0: f6a1 b626 01ac 6cac 0891 6798 7aaa 0824
000001e0: 899d 4525 e49b 062a 2da4 13a8 4529 5da4
000001f0: fdaa 5eab 19ac 1fab 3426 f11e 0029 802a
0.03897 -0.02737 0.0175 -0.0829 -0.02235 -0.00787 -0.04535 -0.0761
-0.02994 -0.0885 -0.1163 -0.03818 -0.0679 -0.02057 -0.04114 -0.1334
0.014595 0.01611 -0.03885 0.0974 0.03049 -0.01572 0.0234 0.02423
-0.0939 0.001913 0.006012 0.00891 0.006664 -0.06476 0.001571 -0.05344
-0.08264 -0.081 0.0196 -0.04767 -0.07996 -0.1085 -0.0781 -0.10754
-0.0653 0.0095 -0.03738 -0.02214 0.003733 0.02124 0.07385 0.03943
0.04175 0.003502 -0.01526 -0.05115 0.01976 0.0267 0.02028 -0.102
0.002224 0.03842 -0.01643 -0.015396 -0.0659 -0.076 0.03888 0.0417
0.04965 -0.03958 -0.0932 -0.01488 -0.0687 -0.10956 -0.02502 -0.0868
0.0848 0.066 0.02353 0.04837 0.01028 0.05798 0.1102 0.002691
0.03009 0.04028 0.02814 0.0703 0.04218 0.0188 0.0248 0.025
0.01598 0.02872 0.03857 0.02837 -0.03925 -0.01646 0.010506 0.04913
-0.001384 0.08203 0.05667 0.006447 0.0922 0.00501 0.05252 -0.003778
0.03824 -0.0391 0.04572 0.0184 -0.010735 0.01823 -0.03937 -0.01648
-0.073 0.05865 -0.03326 -0.03017 0.0712 -0.1439 -0.05835 -0.00911
-0.0684 -0.01588 -0.033 -0.0312 -0.04263 -0.01588 -0.00611 -0.007027
-0.006226 0.0396 -0.03403 0.03848 -0.02531 0.00634 -0.02878 -0.005386
-0.00819 -0.02539 0.03123 -0.01802 -0.02255 -0.032 -0.01066 -0.02124
0.1063 0.10925 0.05997 0.1311 -0.009186 -0.02814 0.06866 0.0503
-0.05774 0.03296 0.008766 0.0717 0.1311 -0.04614 0.02525 0.03146
0.0516 0.01077 -0.1118 -0.0993 -0.0851 -0.01616 -0.04794 -0.0577
-0.03534 -0.03053 -0.01791 0.1042 0.05615 -0.04074 0.06714 -0.05176
-0.07837 -0.0338 -0.05392 -0.0355 0.07623 0.06152 0.0779 -0.004776
0.01436 -0.02449 -0.00867 -0.01398 0.0516 0.0742 0.0423 -0.0402
0.0534 0.006866 0.0507 0.04022 -0.03583 0.01566 -0.05078 -0.00879
0.01389 -0.0526 0.04276 0.01161 -0.0431 -0.04163 0.01854 -0.02037
0.01304 0.04486 0.06274 -0.04938 0.03745 0.02795 -0.04208 0.1016
0.0566 -0.004955 0.04156 0.04828 0.0634 0.03342 0.0226 0.005493
0.004425 -0.0363 -0.03952 -0.01169 -0.1183 -0.008354 -0.0319 -0.01498
-0.01164 0.02621 -0.06256 -0.0691 -0.000614 -0.00215 -0.0506 0.01575
-0.005405 0.02058 -0.003853 0.04706 -0.01631 -0.03183 0.04117 -0.01704
-0.0546 -0.05756 -0.064 -0.05563 0.02423 0.00678 0.03906 0.05078

onnx::Conv_79 f2 [64]
00000000: 613b 3840 e936 b82e 7639 7339 a1b5 b035
00000010: a533 9238 ebb3 ca3b 8eb5 833b b9b6 f83a
00000020: 9bb1 14b6 6f38 f631 e8ba 0ab1 8d35 3b39
00000030: 5e39 6b3c 6a38 ca38 a038 583a 5d3c 9430
00000040: 263d 7134 50bd 3234 781a d930 743b 3a3a
00000050: a9b0 3a3e 283c a7bd b5b7 242d 1538 5a3a
00000060: cb35 1530 be37 d626 acb5 50bc dd3c 1d3b
00000070: 3a31 2d2c 383a 76aa 073a 45b8 dbad 8637
0.9224 2.11 0.432 0.105 0.6826 0.681 -0.3518 0.3555
0.2389 0.5713 -0.2474 0.9736 -0.3472 0.939 -0.4202 0.871
-0.1752 -0.38 0.554 0.1863 -0.8633 -0.1575 0.347 0.654
0.671 1.1045 0.552 0.5986 0.578 0.793 1.091 0.1431
1.287 0.2776 -1.328 0.2622 0.003159 0.1515 0.9316 0.7783
-0.1456 1.557 1.039 -1.413 -0.4817 0.0803 0.5103 0.794
0.362 0.1276 0.484 0.0267 -0.3545 -1.078 1.216 0.889
0.1633 0.06525 0.7773 -0.05048 0.7534 -0.5337 -0.0915 0.4702

onnx::Conv_81 f2 [128, 64, 3, 3]
00000000: b3a3 961d 06a4 16a7 0125 01aa 0c1d f693
00000010: 0f22 90a9 c39e 44ab 4b99 9ca6 faa8 ada2
00000020: be26 94a1 f09f bfa8 f3a6 2424 1d1f 03a6
00000030: b021 d727 6aa8 4d28 1128 3c24 a91f 3b28
00000040: 8b1b 2e25 6615 2d1c 1f24 b0a6 52a7 dc9e
00000050: b126 db24 9926 6025 002a c82b a422 b0a4
00000060: 8628 24a5 6e1a af29 1d21 bda4 459b e124
00000070: bc29 62a0 3fa4 4129 2a1e 3e9d d9a5 862c
00000080: d5a6 61a7 9629 139d 60a7 7e2c 49a0 9828
00000090: 1a27 37aa 21ad 9228 c19e a0ab ee9d 7024
000000a0: eca4 b92a 3f2a 7a2c 2b28 d122 6b2a f32b
000000b0: 9a28 512b 8923 0917 92a8 9b24 cd26 03a9
000000c0: 9ea8 65a4 061b de20 2fa6 a1a9 681e 6da8
000000d0: e2a4 f62b 2928 0929 9f15 d4a7 9ea4 fa25
000000e0: 92a8 2fa6 aa28 5b1c fb1c 2d9a 8d28 8922
000000f0: 51a8 dd0e cba8 fb22 971c 0028 ee2e e92b
00000100: 7628 7221 e798 f528 3428 48a1 d22b 902b
00000110: 842c 7a2a 2024 b225 cc29 2f29 7028 0329
00000120: 7624 cea6 6aab fc25 5ca2 36a5 d494 fd22
00000130: 21a5 6ba6 c0a4 0aa8 28a3 1628 3d20 02ad
00000140: 2c9f bea8 c7a5 3d26 a3ab 6522 e122 cd25
00000150: 7a9e 69a8 dc24 07a8 93a8 6da2 9ea4 7d23
00000160: 84a7 461d 47a1 bda9 d42c 792a f12a 7229
00000170: 2014 f09c 3928 ac91 5a21 c39a 3224 2fa5
00000180: 6c9f da9c 0e9f c125 bfa7 b41f d515 1ba8
00000190: 1618 5baa 111b 0b9c 8d22 67a5 4128 2825
000001a0: e62c ac29 b31c 1121 9b2a 6326 2f1e 9ba5
000001b0: 7929 5e98 e2a9 521c bca5 90a1 b728 331b
000001c0: 789e cb24 d320 72a6 5824 672c 272a 1c24
000001d0: c323 472a 68a3 43a6 9924 fba5 e3a1 55a4
000001e0: 2cab 56a6 a6a4 209c 36a4 ae24 6da8 8523
000001f0: 0d98 d42a 142b 6525 241c 2f1d 43a7 dda1
-0.01504 0.005455 -0.01572 -0.02768 0.01955 -0.0469 0.00493 -0.000972
0.01183 -0.04346 -0.006603 -0.05676 -0.002584 -0.02582 -0.03888 -0.01304
0.02634 -0.010895 -0.00775 -0.03708 -0.02715 0.01617 0.006947 -0.02348
0.01111 0.03062 -0.0345 0.0336 0.03177 0.01654 0.00748 0.03305
0.003683 0.02023 0.001318 0.004078 0.0161 -0.02612 -0.0286 -0.0067
0.02614 0.01897 0.02577 0.021 0.04688 0.0608 0.01297 -0.01831
0.03534 -0.02008 0.00314 0.0444 0.00999 -0.01851 -0.00355 0.01906
0.0448 -0.00856 -0.01659 0.04105 0.00602 -0.00512 -0.02284 0.0707
-0.02669 -0.02882 0.04364 -0.004955 -0.02881 0.0702 -0.00837 0.0359
0.02774 -0.04855 -0.08014 0.0357 -0.006596 -0.05957 -0.00579 0.01733
-0.01923 0.05252 0.0488 0.06995 0.03256 0.01331 0.05014 0.0621
0.03595 0.05716 0.01472 0.001718 -0.0357 0.01799 0.02657 -0.03915
-0.03607 -0.01717 0.00343 0.00951 -0.02415 -0.04398 0.006256 -0.03458
-0.01907 0.0622 0.0325 0.03934 0.001372 -0.03058 -0.01804 0.02335
-0.0357 -0.02415 0.03644 0.004253 0.004864 -0.003016 0.03555 0.012764
-0.03372 0.000419 -0.03745 0.01363 0.004482 0.03125 0.1083 0.0618
0.03485 0.010635 -0.002394 0.03873 0.03284 -0.010315 0.0611 0.05908
0.07056 0.0506 0.01611 0.02225 0.0453 0.0405 0.03467 0.03915
0.01743 -0.02658 -0.05792 0.02338 -0.01242 -0.02036 -0.001179 0.01365
-0.02003 -0.02507 -0.01855 -0.03156 -0.01398 0.03192 0.00828 -0.07825
-0.007004 -0.03705 -0.02257 0.02437 -0.05966 0.01249 0.013435 0.02266
-0.006325 -0.03445 0.01898 -0.03146 -0.03574 -0.01255 -0.01804 0.014626
-0.02936 0.00515 -0.01031 -0.04483 0.07544 0.05057 0.05423 0.04254
0.001007 -0.00482 0.033 -0.0006924 0.01045 -0.003302 0.01639 -0.02025
-0.007248 -0.004738 -0.00689 0.02248 -0.03026 0.007523 0.001424 -0.03207
0.001995 -0.04965 0.00345 -0.00395 0.012794 -0.0211 0.03323 0.02014
0.07654 0.0443 0.00459 0.009895 0.0516 0.02495 0.00604 -0.0219
0.04276 -0.002132 -0.04596 0.00422 -0.0224 -0.010864 0.03683 0.003515
-0.006317 0.01872 0.00942 -0.02518 0.01697 0.0688 0.04807 0.01605
0.01516 0.04904 -0.014465 -0.02446 0.01796 -0.02336 -0.0115 -0.01692
-0.05603 -0.02475 -0.01816 -0.00403 -0.01645 0.01828 -0.03458 0.01469
-0.001978 0.05334 0.0553 0.02107 0.004044 0.005062 -0.02837 -0.01145

onnx::Conv_82 f2 [128]
00000000: 9db6 f039 e233 432c 19bb f1bc fd32 af3c
00000010: 6a3c faaf 7239 952e c232 70bc 9832 5430
00000020: 9435 ee3e 3eb1 5ab9 b33a b3b9 7c34 c6b8
00000030: f339 c637 f33c b33a 4f38 c739 5d18 10ba
00000040: 6e3c b330 c330 40b5 23b1 d129 bb3d 73ae
00000050: 14af dab0 c83d f123 5cac abab 8838 74b2
00000060: c82e d7ae 6fb3 f4bc a12e 36b9 7430 03aa
00000070: 1d33 f139 472f d6b8 422c 4536 ff21 deb5
00000080: 0038 e530 083d d6b9 8aac 9eb6 983a 37bb
00000090: c838 6138 3b34 153c d139 c831 61ae dd3b
000000a0: c0b7 d139 c6b2 4d25 d5b2 daaf b738 0aba
000000b0: 973b 2639 e638 0bb0 133b 8039 de34 842e
000000c0: 9e2d 6d3a 9536 aab0 d239 113c 763c 9cb6
000000d0: 40bb e733 8ea9 d8b8 1e3a 4034 3e37 c334
000000e0: 4030 5db8 36a1 c839 2b3d 4738 402d 8c39
000000f0: 2437 de38 a83e fa37 473c 8c3a e237 3bb6
-0.4133 0.742 0.2463 0.0666 -0.887 -1.235 0.2184 1.171
1.104 -0.12463 0.6807 0.10284 0.2112 -1.109 0.206 0.1353
0.3486 1.732 -0.1638 -0.669 0.8374 -0.7124 0.2803 -0.5967
0.7437 0.4858 1.237 0.8374 0.5386 0.722 0.00213 -0.758
1.107 0.1469 0.1488 -0.3281 -0.1605 0.04544 1.433 -0.10077
-0.1106 -0.1516 1.445 0.01551 -0.0681 -0.0599 0.5664 -0.2017
0.10596 -0.1069 -0.2323 -1.238 0.1036 -0.6514 0.1392 -0.04697
0.2223 0.7427 0.1137 -0.6045 0.0665 0.3918 0.01171 -0.3667
0.5 0.153 1.258 -0.7295 -0.0709 -0.4136 0.824 -0.902
0.5977 0.5474 0.2644 1.0205 0.727 0.1807 -0.0997 0.983
-0.4844 0.727 -0.2117 0.0207 -0.2135 -0.1227 0.5894 -0.755
0.9487 0.6436 0.6123 -0.1263 0.8843 0.6875 0.3042 0.1018
0.08777 0.803 0.4114 -0.1458 0.7275 1.017 1.115 -0.413
-0.9062 0.247 -0.0434 -0.6055 0.7646 0.2656 0.4526 0.2976
0.1328 -0.5454 -0.01018 0.7227 1.292 0.5347 0.08203 0.6934
0.4463 0.6084 1.664 0.4985 1.069 0.8184 0.4927 -0.3894

onnx::Conv_84 f2 [128, 128, 3, 3]
00000000: 762b 6d2c 031c a68a e0a4 a627 e42b bb2c
00000010: 8e26 3a2a 8d2c 532c e59c 3b2c 5225 3d2b
00000020: 882d c02d eaa5 5c9c 95a0 97a9 63a8 5da5
00000030: 0ba6 0618 d8a7 e3a7 08a9 b7ab 6ba7 01a4
00000040: 29a9 0cac b9aa 59a6 8b30 c62d 782f 3530
00000050: 742d 4430 ee33 702e 9132 c4b0 bfae eab0
00000060: d3af 75a9 d2ac 42b0 6fa9 f2b0 d129 3d2b
00000070: 94a5 be2f 65a3 1a28 3f25 d59d b3ac bd26
00000080: 7d27 f823 ba91 652a 0319 40ad b7a8 64a9
00000090: b32f 4f2b 882d 1530 882c d929 0e30 f02d
000000a0: 042c 732c 462b 9430 d02c d825 362d 132e
000000b0: 8929 e629 8729 9a2c 962e 7f29 e5a2 672d
000000c0: 842c 362c 512d 4822 fe24 cea9 e9aa f6a5
000000d0: b8ac 2eaa abad 88ae 492e ba28 062d c92b
000000e0: 8720 4ba6 6b30 622c 8a2a e4a6 dda8 95ae
000000f0: 27a9 089a 94ad 85a8 2ca4 3cae 03a7 0928
00000100: 3fa6 30a4 8d29 b8a1 56aa daa1 0628 ce30
00000110: 5f28 d824 5728 0b27 be9e a52c d529 b42d
00000120: 402d 4426 d72c 972d 4e2c 752a ea2d cd27
00000130: 2030 ae24 9921 22ad f722 b92c 52aa 3499
00000140: 8126 67a5 a42f 4730 2d31 7029 0e2b 3b2d
00000150: d799 6e20 02a6 f2aa c1ad 24b0 67a4 33a4
00000160: e1a8 ebaa 14ad ddad d4aa 9524 20ad cc9e
00000170: 5624 a9a8 2aaa 80a5 fcac c331 0a2f 1532
00000180: 542b 7d2c 9d2e 9d2f af2e df2f d3a8 3b1f
00000190: 2428 3aa5 08a7 891a a9a5 4aa6 b229 2f24
000001a0: a02c 2c28 ff24 fb29 c027 a8aa 2e18 6da1
000001b0: 79ab 61a9 1627 b5a8 73a0 c718 6fab 5cab
000001c0: 1a24 312d 8b25 4c2b c930 e92c 7f1a b72a
000001d0: 19a6 8aa7 88a2 20a2 76a5 2826 672b 91a4
000001e0: b120 90aa 79a8 8726 7a92 d7a2 4b1f 42a3
000001f0: 1823 e3a5 6124 ba20 592e 622b 3f2a 852c
0.0583 0.06915 0.003918 -0.0002029 -0.01904 0.02988 0.06165 0.0739
0.0256 0.04865 0.0711 0.06757 -0.00478 0.0661 0.02078 0.05655
0.0864 0.08984 -0.0231 -0.004257 -0.00895 -0.04367 -0.03427 -0.02095
-0.0236 0.001965 -0.03064 -0.0308 -0.0393 -0.06027 -0.02898 -0.01564
-0.0403 -0.06323 -0.05252 -0.0248 0.142 0.0902 0.1167 0.1315
0.0852 0.1333 0.2478 0.1006 0.2052 -0.1489 -0.1054 -0.1536
-0.12225 -0.04263 -0.0753 -0.133 -0.04245 -0.1545 0.04544 0.05655
-0.02179 0.121 -0.01444 0.03204 0.0205 -0.005695 -0.0734 0.02632
0.02925 0.015564 -0.000699 0.04996 0.002447 -0.08203 -0.03683 -0.0421
0.1203 0.0571 0.0864 0.1276 0.0708 0.0457 0.1267 0.0928
0.06274 0.0695 0.05682 0.1431 0.0752 0.02283 0.0814 0.0949
0.04324 0.04608 0.04318 0.0719 0.1029 0.04294 -0.013466 0.0844
0.07056 0.0658 0.08307 0.01227 0.0195 -0.04535 -0.054 -0.02328
-0.0737 -0.04828 -0.08856 -0.10205 0.0982 0.03693 0.0785 0.06082
0.00884 -0.02458 0.1381 0.0685 0.0511 -0.02692 -0.038 -0.10284
-0.04025 -0.002945 -0.08716 -0.0353 -0.0163 -0.0974 -0.02739 0.03152
-0.0244 -0.01636 0.04337 -0.01117 -0.0495 -0.01143 0.03143 0.1501
0.03415 0.01892 0.0339 0.02751 -0.006584 0.0726 0.04556 0.0891
0.08203 0.02448 0.0756 0.08734 0.06726 0.05045 0.0924 0.03047
0.1289 0.01828 0.01093 -0.0802 0.0136 0.0738 -0.04938 -0.00254
0.0254 -0.0211 0.1194 0.1337 0.1617 0.04248 0.0551 0.0817
-0.002851 0.00865 -0.02347 -0.05426 -0.0899 -0.1294 -0.0172 -0.0164
-0.03812 -0.05405 -0.07935 -0.0916 -0.05334 0.0179 -0.0801 -0.006638
0.01694 -0.0364 -0.04816 -0.02148 -0.0779 0.18 0.11 0.1901
0.05725 0.0701 0.10333 0.11896 0.10443 0.123 -0.0377 0.00706
0.03235 -0.02042 -0.02747 0.003191 -0.02211 -0.02457 0.0445 0.01634
0.07227 0.0326 0.01952 0.04672 0.03027 -0.052 0.00204 -0.0106
-0.05838 -0.04202 0.02768 -0.03677 -0.00869 0.002333 -0.05807 -0.0575
0.01602 0.0811 0.02165 0.057 0.1495 0.0767 0.003172 0.05246
-0.02382 -0.02945 -0.01276 -0.01196 -0.02133 0.02405 0.05783 -0.01784
0.00916 -0.05127 -0.03494 0.0255 -0.0007906 -0.01336 0.007122 -0.014175
0.013855 -0.023 0.0171 0.00923 0.0992 0.05768 0.0488 0.0706

onnx::Conv_85 f2 [128]
00000000: d6bd 2038 f7b6 99b8 5b37 f43d 06b1 3638
00000010: 8839 cb37 3f3e 853c 27b5 183e c334 8839
00000020: 8d2f f9b6 983d 4537 fd32 323b 1e39 d034
00000030: b430 892e c2b3 16aa 630f 38b1 743e 312f
00000040: c73b a631 4d36 dcba 0039 1039 2d39 59b2
00000050: edb1 9038 b439 803b cb3a d33c c438 4838
00000060: 0534 5c2e cf32 492b 3338 8538 063a 6eb5
00000070: 5e3b d038 9735 803a 66b9 e82c 87b1 843b
00000080: 9c33 2f36 1b3e df1a a63a 2236 7d3e d63c
00000090: 47bb 4933 66b4 0a30 ad34 f832 27b8 0c3b
000000a0: 57ac 3339 1c3d a42d 5538 e6b2 393e 8438
000000b0: 3f3c 302c 8539 0129 8536 19ac 6142 063c
000000c0: 5539 0a38 c93e dc3c 183a 243d 273a 9634
000000d0: e433 c02e da39 82b3 8235 983a 503c a9a4
000000e0: 0839 e8b7 e73d cf36 2b3d 1d29 ac3f bdb9
000000f0: 433f c136 b43d 4f2e c935 da38 b835 b12d
-1.459 0.5156 -0.4353 -0.5747 0.4597 1.488 -0.157 0.5264
0.6914 0.487 1.562 1.13 -0.322 1.523 0.2976 0.6914
0.118 -0.4358 1.398 0.4543 0.2184 0.8994 0.6396 0.3008
0.147 0.1021 -0.2424 -0.04755 0.0004508 -0.1631 1.613 0.11237
0.972 0.1765 0.3938 -0.8574 0.625 0.633 0.647 -0.1984
-0.1852 0.5703 0.713 0.9375 0.849 1.206 0.5957 0.535
0.2512 0.09937 0.2128 0.05692 0.525 0.565 0.753 -0.3394
0.921 0.6016 0.3494 0.8125 -0.675 0.07666 -0.1727 0.9395
0.2378 0.3865 1.526 0.003355 0.831 0.3833 1.622 1.209
-0.9097 0.2277 -0.275 0.1262 0.2922 0.2178 -0.519 0.881
-0.0678 0.65 1.277 0.08813 0.5415 -0.2156 1.556 0.5645
1.062 0.0654 0.69 0.0391 0.4075 -0.064 3.19 1.006
0.6665 0.505 1.696 1.215 0.7617 1.285 0.769 0.2866
0.2466 0.10547 0.7314 -0.2346 0.3442 0.824 1.078 -0.0182
0.629 -0.4941 1.476 0.4255 1.292 0.03995 1.918 -0.7173
1.815 0.422 1.426 0.0986 0.3616 0.6064 0.3574 0.0889
